flaskServer/liveness_model.onnx (onnx, 600928 bytes, 30 tensors)

sequential/dense_1/MatMul/ReadVariableOp:0 f4 [64, 2]
000000 f7 e1 32 3e 2e 17 8a 3d 69 18 7e be 7d 32 d8 3d
       0.17469011 0.067427024 -0.24813999 0.10556505
000010 2f fa f8 3d 34 3c 78 3e 90 f2 6e be be 0e 0e be
       0.12157094 0.24241716 -0.23334718 -0.13872811
000020 6e 62 28 be c2 5f 4e 3e 3a cb 10 3e ae 7b c3 bc
       -0.16443798 0.20153716 0.14140025 -0.023862686
000030 02 dc eb bd 31 b5 5f 3d c4 29 e7 bd 0e 33 5a 3e
       -0.115165725 0.054616157 -0.11287263 0.21308538
000040 0d a1 7e 3d 0f 9b 45 be 3e 26 12 be e8 97 55 be
       0.06216531 -0.19297431 -0.142724 -0.20858729
000050 8a bc f6 bd c9 a2 fb bc cc ff 1c be 39 da 66 be
       -0.1204768 -0.03071727 -0.15331954 -0.22544183
000060 f9 f8 f8 3d 2b ab 1d be c4 99 a3 bd e0 54 45 bd
       0.12156863 -0.15397327 -0.07988313 -0.048176646
000070 c1 d9 2a 3e 94 fb 59 3e cf 09 0c be ce 57 20 3e
       0.16684629 0.21287376 -0.13675617 0.15658495
000080 99 31 53 be 3c 52 c8 3d a4 31 63 3e d8 af 0d be
       -0.20624389 0.0978131 0.22186905 -0.1383661
000090 a5 44 11 3d 42 fa 5e 3e ae e1 55 be e8 d5 34 bd
       0.035465855 0.21775153 -0.20886871 -0.04414931
0000a0 42 72 0e be ae d5 87 bd a4 e0 90 3e c4 0d c7 3d
       -0.13910773 -0.06632553 0.28296387 0.097194225
0000b0 d0 7c 21 be 57 7f 5d be a5 64 1e be ff 3e c4 bd
       -0.15770268 -0.21630608 -0.1546808 -0.09582328
0000c0 e5 1d 38 3e 6c ad 57 3e 15 92 98 3c 64 de 43 3e
       0.17980154 0.21062249 0.018624345 0.19127804
0000d0 32 a7 a6 3b 73 ab 68 3d 1d b5 e1 3d e2 b6 06 be
       0.005085849 0.05680413 0.11020873 -0.13155702
0000e0 00 fc 08 3e 5a 7c 6c 3d a6 02 9f 3d ab 9a e0 bd
       0.1337738 0.05773578 0.07764177 -0.109670006
0000f0 0d 7a 11 be fc cb 89 3e 75 70 b0 3c 64 bb 81 3e
       -0.14206715 0.2691344 0.021537999 0.2533828
000100 55 9c b7 bd 3b f9 58 bd 7a 8b a5 3c fc a8 30 be
       -0.08965365 -0.05297206 0.02020811 -0.17251962
000110 01 dd 8c be 29 f9 5f bd 25 8d 48 bd 4b f9 5b 3e
       -0.27512363 -0.054680977 -0.04896273 0.21481816
000120 a2 a4 bb 3d d5 53 c3 3d 73 8c 8c be a1 c1 67 be
       0.091622606 0.09537474 -0.27450904 -0.22632457
000130 95 72 ab bc e1 80 08 be 63 30 0b 3e 70 b8 b6 bd
       -0.02092866 -0.13330413 0.13592677 -0.089218974
000140 ee 5c 6c bd 0e 19 45 be 1c 9e 3c 3e 29 ee 3e bd
       -0.057705812 -0.19247839 0.18419689 -0.046613846
000150 94 79 10 be 7d 67 44 3e 11 f2 6f be 65 c5 26 be
       -0.14108878 0.19180103 -0.23432185 -0.16286238
000160 6d 26 75 3e 83 dc 09 be d1 dd e9 bd f6 7e 75 3e
       0.2394044 -0.13463025 -0.11419261 0.23974213
000170 2d 78 54 be 8a be 14 bc df b5 ff 3b f4 a3 ff bd
       -0.20748968 -0.009078631 0.007803663 -0.124824435
000180 0d 5c 46 be 31 a6 61 3e 18 ab 78 be ff ab 6b be
       -0.19371052 0.22036053 -0.24284017 -0.2301483
000190 68 f7 33 be 80 21 c1 bd 19 0d e0 3d c3 23 6c be
       -0.17574847 -0.09430218 0.10939998 -0.23060517
0001a0 7c 45 46 3e 4c c7 6f be 69 b6 a8 b9 69 1d 33 be
       0.19362444 -0.2341587 -0.00032179363 -0.17491688
0001b0 a2 4b 8d be 12 62 59 be ca 73 3f be 3c a2 39 3e
       -0.27596766 -0.21228817 -0.18696514 0.18128294
0001c0 cc 35 c3 3d a0 22 45 be 10 c6 6c be 7c e1 f6 3d
       0.09531745 -0.1925149 -0.2312243 0.120547265
0001d0 1e ce c3 bc c4 7b 3a be 22 99 17 3e ea 6c 16 be
       -0.023901995 -0.18211275 0.1480451 -0.14689985
0001e0 68 96 c8 bd 5d 46 e4 3d bd 74 7b 3e e2 b8 13 be
       -0.09794313 0.11146233 0.24556251 -0.14425996
0001f0 96 ae 5c be da 3b 1c be a9 7c 06 be 8e 9c ee bc
       -0.21550974 -0.15257207 -0.13133492 -0.029127385

sequential/dense_1/BiasAdd/ReadVariableOp:0 f4 [2]
000000 d6 3d 3e 3c 87 69 60 bc
       0.0116114225 -0.013697035

sequential/dense/MatMul/ReadVariableOp:0 f4 [2048, 64]
000000 cd f8 f9 bb a4 58 d0 3c d9 9c 62 3c 0c db 4f 3c
       -0.0076285363 0.025432892 0.013831341 0.012686502
000010 73 41 18 bd 0b 8f 8c bc df b8 ab bc a9 4b d1 3b
       -0.037171792 -0.017158052 -0.020962177 0.006387193
000020 11 c9 62 bc dd a1 2c bd e7 fd 19 bd de 36 de 3c
       -0.013841883 -0.042146552 -0.037595656 0.027125772
000030 a7 2f 78 3b 2f b6 e8 3c e4 c5 78 bc 8e c9 04 3d
       0.00378702 0.028407184 -0.0151839 0.03241878
000040 88 03 8b 3b 88 26 80 3d ea 3c 9e bc 2e f9 98 3c
       0.0042423643 0.06257349 -0.019316155 0.018673506
000050 f5 f2 62 bd 00 25 03 3c b8 34 2b 3d ac a8 ae 3c
       -0.055407483 0.008004427 0.041798323 0.021320663
000060 c5 e0 69 bd 97 5a 05 bd c2 ad 6e 3d ee 31 eb bc
       -0.057099123 -0.032557096 0.058271177 -0.028710332
000070 2d f5 45 bd 9f 2f 7d bc 1c 4a a0 3c 3d 21 b8 bb
       -0.04832952 -0.015453248 0.019566588 -0.0056191967
000080 79 6d 30 3c fe 1c 14 3d 92 35 85 3c 89 91 98 3c
       0.010768288 0.03616046 0.016260896 0.018624084
000090 1f 9c 59 3d 8b 1b 9c bc b5 dd 19 3d f7 d3 79 3d
       0.053127404 -0.019056102 0.037564952 0.06099316
0000a0 1e 53 b5 3c 2d 30 1e 3d 41 27 22 bd 5c 86 06 3c
       0.02213436 0.038620163 -0.039588217 0.008210745
0000b0 81 95 06 3d 4d 05 95 3c f8 26 d9 3c 3c 98 25 3c
       0.03285742 0.018191004 0.02650784 0.010107096
0000c0 19 c1 8e bc 17 76 e9 3b 15 78 af 3c aa 49 61 3d
       -0.01742606 0.007124673 0.021419564 0.055001892
0000d0 14 76 8b bc c7 83 2a bd 6d c7 4d bd e0 03 53 bc
       -0.017024077 -0.04162958 -0.050239015 -0.012879342
0000e0 9a 55 c2 ba 14 b3 cc bb d2 ef c9 3c e5 54 71 3c
       -0.0014826537 -0.0062469337 0.024650488 0.014729713
0000f0 74 2c b0 3c 9b 39 0f bc f8 1b 66 3c f9 ae f7 bc
       0.021505572 -0.008741762 0.014044754 -0.0302348
000100 1b 33 2f bc 24 7c d5 bc fc ef ae 3b 2d 85 be bc
       -0.010693337 -0.026060171 0.005338667 -0.023256863
000110 44 06 94 bc 8b 2e 42 3d 3b 09 2d bd 6a 6c f5 bc
       -0.018069394 0.047407668 -0.04224513 -0.029958922
000120 b2 38 08 bc ee 4f fd bc 75 0b 5b 3c 47 02 33 3c
       -0.0083142985 -0.030921903 0.013369431 0.010925836
000130 68 e9 ea 3c 3b 44 7b bb b9 29 05 3c b3 6f b5 bb
       0.02867575 -0.003834023 0.008127623 -0.005536997
000140 5a 0d 16 3d cd cb c1 bc a1 a6 84 3c 0d c8 fd ba
       0.036633827 -0.02365675 0.016192736 -0.0019361988
000150 f7 f9 01 3d 3d 49 1b 3d 1a 96 4b bd 59 21 10 bd
       0.031732526 0.037911642 -0.049703695 -0.035188053
000160 b7 b3 df 3c 45 83 20 bd bf 3e 4b 3d e3 1e fc 3c
       0.027307374 -0.03918769 0.049620386 0.030776447
000170 05 ee 40 bb ba d0 92 bc 02 8e fe bc ba a6 1a bc
       -0.0029438746 -0.017921794 -0.031073574 -0.009439165
000180 f6 05 8e 3c 08 51 7c 3d 6f ba 44 bc 33 97 42 3d
       0.017336827 0.061600715 -0.01200734 0.047507476
000190 07 1a 05 3d 38 64 4d bb 0a 95 87 3d 95 e7 f5 bc
       0.032495525 -0.0031340253 0.06620224 -0.030017653
0001a0 62 7f 5c 3d 75 d2 3e 3d 39 fd 84 bd 11 17 9d bc
       0.05383242 0.046587426 -0.06493611 -0.019176038
0001b0 20 e2 fd bb 56 2f ed bc 2d 86 a7 bc 90 0d e1 bc
       -0.0077479035 -0.028953236 -0.020449722 -0.027472287
0001c0 0b d7 26 bd 98 0e cb bc 9c 34 a1 bc 1a af 25 bd
       -0.040732425 -0.024787232 -0.019678406 -0.040450193
0001d0 7d 88 59 3d 89 37 26 bd 6c 5d 73 bd 72 31 8a bc
       0.05310868 -0.040580306 -0.059415266 -0.01686928
0001e0 c1 87 5c 3d a0 d6 25 bd f7 7c 72 3d ce 6c 1e 3d
       0.053840403 -0.040487885 0.059201207 0.038677983
0001f0 e1 3d 07 bd 67 58 6a 3c 81 97 01 3d d8 c0 13 bd
       -0.033017997 0.014303303 0.031638626 -0.036072582
000200 d7 2c 2f 3d cd a9 8f 3b c0 6c cf 3c 5a 2f a0 3c
       0.042767372 0.0043842555 0.02532041 0.019553829
000210 f3 12 44 bd 37 d8 11 bc af 06 29 bd 7e 17 5d bb
       -0.047869634 -0.008901647 -0.04126614 -0.0033735926
000220 8f 53 56 bb f8 7b f9 3c 3b ca 1c 3c fd 2b 29 3d
       -0.0032703613 0.03045462 0.0095697 0.041301716
000230 54 3d f1 3c 1c 6d 7d bc 2c dd 8e 3c a5 8d 27 3c
       0.029448189 -0.015467908 0.017439447 0.010226642
000240 12 64 78 bd a9 26 1c 3d 5d 98 09 3b 86 41 af bc
       -0.06064231 0.038122807 0.0020995357 -0.021393549
000250 87 3c 52 bb 47 b4 e0 3a 8f 10 0d bd c1 83 38 bd
       -0.0032079534 0.0017143571 -0.03443962 -0.045047525
000260 7f 23 a3 bc 79 a1 6a bb 0e e8 29 bd 9e a5 df bc
       -0.019914387 -0.0035801812 -0.04148107 -0.027300652
000270 d8 ea c6 bc 3f dc 51 bc b0 c1 47 bd 89 f2 28 3d
       -0.024281904 -0.012808858 -0.0487687 0.041246925
000280 0e 2f 5b bd 0b 4f 11 bd 11 8a 42 bc 38 b7 89 bc
       -0.05351167 -0.035475772 -0.011873738 -0.016810998
000290 c5 7c 35 3d de a7 97 3c 43 96 96 3b 9c 94 d6 bc
       0.044308443 0.018512663 0.0045955493 -0.02619391
0002a0 a5 59 63 3d 8e 21 2f 3d aa af b3 bc 04 12 10 3d
       0.055505414 0.04275661 -0.02193435 0.03517343
0002b0 8d 32 88 3c 70 f2 1a 3d 49 b4 a8 bc 88 9f f3 bc
       0.016625667 0.037828863 -0.02059378 -0.029739156
0002c0 ed 94 b1 3c f6 b1 cb 3a f7 9d a9 3c 05 5e ea 3c
       0.021677459 0.0015540707 0.020705206 0.028609285
0002d0 a1 52 cb 39 a1 c2 16 bc 96 cb 3c bb 8a 17 48 bd
       0.0003878074 -0.009201677 -0.002880787 -0.048850574
0002e0 7e cc 81 bc a9 2a 28 bd e3 73 0a 3d fe c2 0c bd
       -0.01584458 -0.04105631 0.033801924 -0.034365647
0002f0 ca 0a 2c bd 86 d4 86 bc 2d 77 be 3c 74 06 18 bd
       -0.042002477 -0.016458761 0.023250187 -0.03711553
000300 aa 6e a0 bc 66 4e 03 bc 74 c7 02 bc 96 ef fa bc
       -0.019584019 -0.008014297 -0.007982124 -0.030631822
000310 e9 a1 cb bc d1 72 8d 3c b9 3a a9 3b b0 1d d3 3c
       -0.024857478 0.017266663 0.005164471 0.025770992
000320 f8 b3 45 3d 4e b6 94 bc 01 b1 07 3a 82 37 18 bd
       0.048267335 -0.018153336 0.0005176217 -0.03716231
000330 9e e0 ce 3a 31 12 18 bd 7d 5f 79 3c 5e 12 4b bc
       0.0015783494 -0.037126724 0.01522052 -0.012394516
000340 d7 b8 af bb d0 b8 22 3d 2b bf 3d bd a7 c3 dc 3c
       -0.005362611 0.039727032 -0.04632489 0.026948763
000350 dd 38 1f 3d df 81 5c bd aa 34 57 3d c9 2f 50 bd
       0.03887259 -0.053834792 0.05254046 -0.05082682
000360 84 33 40 3d 12 55 0d 3d a5 5b db bc c0 da 23 bd
       0.04692413 0.034504957 -0.026777098 -0.040003538
000370 11 1e 62 3c 84 66 bb bc 56 a8 8b 3b e3 80 02 bd
       0.013801114 -0.022876032 0.0042620106 -0.031861197
000380 03 e6 2c bc 99 22 1e bd bc bf 23 bc 02 6c 3e bc
       -0.010552886 -0.038607214 -0.0099944435 -0.011622431
000390 27 24 25 3d 09 b0 41 3d f8 32 2a b9 bc 4a ca 3c
       0.04031768 0.04728702 -0.0001623145 0.02469384
0003a0 cb 8f d4 3c 7f e0 95 ba 0c 6e 33 bd 0a 94 12 bd
       0.025947472 -0.0011434703 -0.04380612 -0.035785712
0003b0 88 6e bf 3c 9b 22 0b bd 3d 9e 0f bd 6d 6a 8d 3c
       0.023368135 -0.03396855 -0.035063017 0.017262662
0003c0 99 c5 70 bb 94 f1 b7 b8 31 d7 5c bd 3a dc d9 37
       -0.003673887 -8.7711174e-05 -0.05391616 2.5970967e-05
0003d0 b3 b2 c9 3a 3e 47 2b bd fb 26 09 3d 2d 50 e3 bc
       0.001538834 -0.04181599 0.03348444 -0.027748192
0003e0 fc c5 01 bd 82 0d d2 3b c0 36 87 bc 7b eb da bc
       -0.031682953 0.0064103017 -0.016505599 -0.026723614
0003f0 ea 69 47 3d ee 2b ed bc fa ff 74 bc 3c c0 b5 3c
       0.048684992 -0.028951611 -0.014953608 0.022186391

sequential/dense/BiasAdd/ReadVariableOp:0 f4 [64]
000000 4c 57 82 3b 24 45 e3 bb 6f 21 57 bc 8a 1f ef 3c
       0.0039776918 -0.0069357324 -0.01313053 0.029189844
000010 d9 bc 32 3c 0f 91 80 bb 3a ed b1 3a 8c ac 01 3c
       0.010909283 -0.0039235423 0.0013574727 0.007914674
000020 06 d6 4f 3b 9c ee c0 3b 1f 56 7e 3c 36 8d 19 bc
       0.0031713261 0.0058878195 0.015523463 -0.009372046
000030 e5 ba 05 3c 66 4b 86 3a d6 08 89 bb 04 a4 35 3b
       0.008162235 0.0010245859 -0.0041819615 0.002771617
000040 9c 50 08 bc 44 83 63 3a 31 40 fd 3b 05 57 bf bb
       -0.00832 0.0008678923 0.0077285995 -0.005839231
000050 a6 a7 bc bb e2 e9 db bb 6d fa fb bb 29 7b 0e bc
       -0.00575729 -0.0067112306 -0.007689765 -0.008696356
000060 6f 44 24 bc e4 1d 4c 3a 8f aa e8 3b fa 5e 92 3b
       -0.010026081 0.00077864365 0.0071004103 0.0044668885
000070 09 90 a6 3b b0 ce a5 3c 60 23 f8 bb 33 be 0a bc
       0.0050830883 0.020240158 -0.0075725764 -0.008468199
000080 06 c3 6d 3c 28 91 98 3b 97 1c b8 bb a3 37 98 3b
       0.014511829 0.004655976 -0.0056186425 0.0046453043
000090 dd a2 37 bb 33 26 0e bc 94 4a 95 39 77 ca 12 b8
       -0.0028020658 -0.0086761 0.0002847506 -3.4997673e-05
0000a0 00 9c 12 3c 33 db 2b ba 27 2c a2 bb 87 bb 32 bc
       0.008948326 -0.00065557956 -0.004949111 -0.010908968
0000b0 cb 7e 5d 3b b8 c6 8b 3c 0a b8 4d bb 1f e6 23 bb
       0.0033797498 0.01706253 -0.0031390213 -0.002500899
0000c0 2b 71 07 bc fd b2 c7 ba db 88 0c bc 36 a2 85 bb
       -0.008266727 -0.0015235838 -0.008577551 -0.004078175
0000d0 e6 c6 81 3c 95 da 48 bb be 98 28 bc 2b f5 4c 3c
       0.015841912 -0.0030647863 -0.010290323 0.0125096245
0000e0 f4 30 cb 3b 79 62 0c 3c 5a ca 39 3c bf 36 2d 3b
       0.006200904 0.0085684 0.011339748 0.0026430336
0000f0 93 bf 0c 3c 21 d7 51 3c b5 51 57 bc aa 41 78 3c
       0.008590597 0.012807638 -0.013142039 0.015152374

sequential/conv2d_3/Conv2D/ReadVariableOp:0 f4 [32, 32, 3, 3]
000000 8e 43 76 3d 20 20 60 bd 1b 29 f3 bc 7e 31 d8 3d
       0.06012302 -0.054718137 -0.029682687 0.10556315
000010 0d 0c da ba b9 19 b1 bd 28 af af 3d 57 65 49 3c
       -0.0016635671 -0.08647484 0.0857833 0.012292228
000020 fa 54 d8 3a d1 b9 7d 3b 06 46 1d bd 2f 45 69 bd
       0.0016504817 0.0038715492 -0.038396858 -0.056950744
000030 cd 2b ca bd df 1b 86 bd ec 04 e3 3d 43 0c 89 3d
       -0.098716356 -0.06548285 0.11084923 0.06691792
000040 31 90 b9 bc 48 24 c2 3b 96 64 36 bd 07 13 29 bd
       -0.022651764 0.005924735 -0.04452952 -0.04127791
000050 87 18 b8 bc 6c ec fc bc ce 97 90 3c 5a 4b cd 3d
       -0.022472633 -0.030874453 0.017650511 0.10024138
000060 d9 f4 72 3d b8 31 18 3d 5f 0f 6b bd 55 a6 cb 3d
       0.059315536 0.03715679 -0.057387706 0.09943835
000070 de 6b b7 3d 1b 18 a2 3b 5f c9 e3 ba a1 b4 12 bd
       0.08956121 0.0049467213 -0.0017378739 -0.035816792
000080 c2 ae d3 bb b9 7c b4 3d 27 25 95 bd 35 ee b9 bd
       -0.0064600417 0.088128515 -0.07282477 -0.090786375
000090 f2 dc b0 bd c7 3a b8 3d ea 84 1e bd 15 23 3e bd
       -0.08635892 0.08995586 -0.038700975 -0.046420176
0000a0 c1 20 12 3d aa 26 c2 3d 0c bc 3b 3b 64 b2 9f 3d
       0.035675768 0.09480031 0.002864602 0.07797697
0000b0 db 8f ad bd 61 28 f1 bc f6 e4 6e 3d 5c 91 8b bd
       -0.08474704 -0.0294382 0.058323823 -0.068148345
0000c0 18 10 93 3d 57 73 b8 bd 01 fd 3d bd 73 10 ac bd
       0.07180804 -0.09006374 -0.04638386 -0.08401575
0000d0 6e 29 7c bd df 82 96 bd ca 25 8e 3d 0b 1b a9 bd
       -0.061562948 -0.073491804 0.069408014 -0.08257111
0000e0 59 cf a8 3d d4 d2 96 bc 81 24 36 3d 93 4f b9 3a
       0.082426734 -0.018411078 0.044468407 0.0014138095
0000f0 20 9d ab 3d 5a c0 ab 3d a6 68 72 3d 7f 02 6d 3c
       0.083795786 0.083862975 0.05918183 0.014465927
000100 49 d4 4a bc 83 e2 ca bc 07 4f 08 3d 58 5a f1 bc
       -0.012379714 -0.024766212 0.03327849 -0.029462025
000110 76 30 9f bd 7e f2 b9 3c 79 56 60 3c db a5 5e 3d
       -0.07772915 0.022698637 0.013692492 0.05435739
000120 53 d5 1b bd 96 6f c4 bc b2 61 82 bd 37 e1 e9 3c
       -0.03804524 -0.02397899 -0.0636629 0.028549774
000130 de a7 2b bd 00 32 42 3d f5 20 50 bc 72 6a 93 3b
       -0.041908138 0.047410965 -0.01270317 0.0044987733
000140 28 c3 25 3c d6 e6 54 bd 83 76 46 bd 04 f4 c9 3d
       0.01011733 -0.051977955 -0.048452865 0.098609954
000150 40 36 a2 bd 44 89 15 3d e8 ac 05 3d 37 9a cd 3d
       -0.079205036 0.03650786 0.0326356 0.1003918
000160 8e e7 87 3c c8 d2 8f bb c4 ad 91 3d 90 5a 26 3b
       0.016589906 -0.0043891408 0.07113221 0.002538357
000170 19 b2 8a 3d 28 c0 12 3d 21 21 a7 3d 16 24 f4 ba
       0.06772251 0.035827786 0.08160616 -0.0018626477
000180 ed 0c 9f bc 99 77 59 3d 0a 7d 84 3d 72 43 36 3b
       -0.019415343 0.053092573 0.06469162 0.0027811197
000190 e6 3d ca 3d 26 d6 da bb f4 2e 68 bd 42 5f 03 bc
       0.098750874 -0.0066783605 -0.056685403 -0.008018317
0001a0 46 cd 8c bd 26 f5 81 bd 6e 5a 8e 3d 0e 39 7b 3a
       -0.0687509 -0.063455865 0.06950842 0.0009583392
0001b0 c4 4c a2 3d e2 d9 d9 bd 53 68 37 3d 26 41 a2 bd
       0.07924798 -0.10637261 0.044777226 -0.07922582
0001c0 58 e5 83 bd 2c c3 c3 bd b0 26 67 bd f2 9f b7 bd
       -0.06440228 -0.095587105 -0.05643338 -0.08966054
0001d0 b4 b5 ee bb 04 51 39 bd 4d 02 ea bd ed 14 53 3d
       -0.0072848443 -0.04524328 -0.1142622 0.05153363
0001e0 85 8e ae 3d b2 ef 61 3d 2d 43 1b bd 82 42 29 3d
       0.08523277 0.055160232 -0.03790586 0.041323192
0001f0 ad 77 92 bd 71 ef 9f bd 9e 9f ef bb 92 51 b3 bd
       -0.071517326 -0.07809342 -0.007312729 -0.08755793
000200 24 1d da 3c d8 88 71 3d 1f c4 4d 3d 76 f5 a0 bd
       0.026625223 0.058968395 0.050235864 -0.07859318
000210 6b f8 80 bc 9a 88 8a bd 97 86 71 3c 30 63 c7 3c
       -0.015743455 -0.06764336 0.014741561 0.024339288
000220 93 2a 87 bd a7 4d fa 3c 1b d9 e8 3d 63 19 d1 3d
       -0.06599917 0.030554606 0.113695346 0.1020992
000230 87 69 bf 3d a6 54 91 3b a0 56 24 bd fa 25 76 3d
       0.093462996 0.0044351397 -0.040121675 0.06009481
000240 b2 8f 64 3a fc ad 8a bb 7d 42 b3 bd fb 6b f9 bc
       0.0008718922 -0.0042321663 -0.08752916 -0.030446997
000250 97 b7 11 bd f6 c1 81 bb 85 8e 3c bc 19 7a 8d 3c
       -0.035575476 -0.0039598895 -0.011508589 0.017270135
000260 9a 49 59 3d 3d fb cd bb e3 50 a0 bd d8 fd 86 3c
       0.053048708 -0.0062860535 -0.07827928 0.016478464
000270 bc ff c5 3d 71 d2 86 bc 4e 37 64 3d c4 68 9c 3c
       0.09667918 -0.016457768 0.055716805 0.019092925
000280 75 92 43 3d 7c 59 b1 3d f1 2f fe bc 94 2c 2e bd
       0.047747094 0.08659646 -0.03102872 -0.04252298
000290 e1 ca 9b bc 4b 9a a0 3c cc 90 ce 3d 73 61 99 3d
       -0.019017639 0.019604823 0.100862116 0.0748929
0002a0 0f 05 39 bd 4c a1 71 3d 4f 19 b5 3b 5b 48 12 bc
       -0.04517084 0.058991715 0.0055266987 -0.008928384
0002b0 6f 49 47 3d 23 84 1b 3d 6f 48 b8 bd b0 b9 26 bd
       0.048654016 0.037967812 -0.089981906 -0.04070443
0002c0 46 35 6c 3d dc d8 93 bd 82 9a bc 3d b7 f3 aa bd
       0.057667993 -0.07219097 0.092091575 -0.08347266
0002d0 e6 06 24 bd 5b b2 d5 3c 94 72 5e 3d 75 81 9f 3d
       -0.04004564 0.026086023 0.05430849 0.07788364
0002e0 72 2c d5 bd df 8f 0b 3d 71 c8 7c 3d 84 04 f7 bc
       -0.10408868 0.034072753 0.061714593 -0.03015352
0002f0 72 d0 5d 3d c8 4e d8 bc af 8e b8 bd 9b 85 37 3d
       0.054153867 -0.026404753 -0.0901159 0.04480515
000300 cb 37 e2 3b 29 96 fb bc e6 9f 2a bc 77 2d cb 3d
       0.0069036237 -0.03071125 -0.010414099 0.09920781
000310 04 2a 44 bd 1a 3a 8e b8 3c f3 bd bd d0 3a bd bd
       -0.04789163 -6.78191e-05 -0.09274909 -0.09239733
000320 70 aa 5a bb 3d 36 d9 3b 57 3b 1e bd 8e ba 26 3d
       -0.0033365749 0.00662878 -0.03863081 0.040705256
000330 26 78 5b bd 69 19 fc 3b 07 4c 8c bd 70 0a 7f 3d
       -0.05358138 0.007693459 -0.068504386 0.062265813
000340 06 b0 e8 3d f5 9d 84 bd 92 8c ca 3d 23 50 ab 3d
       0.11361699 -0.064754404 0.09890093 0.08364894
000350 08 1d 9e 3d 9e 79 a9 bc ce 29 e5 3c a8 4d 97 3d
       0.07720381 -0.020687874 0.027974036 0.07387859
000360 9e 13 3d 3d 72 9e 87 3d be 8f 82 bd 8a 43 1b 3d
       0.046161287 0.06622018 -0.06375073 0.037906207
000370 5f be 63 bd 08 44 9c bd 37 a6 92 bd e0 ee 72 3d
       -0.055601474 -0.076301634 -0.07160609 0.05930984
000380 0d c1 a6 3d 28 17 e1 bc fb d8 c2 bd a2 4f 9d bd
       0.0814229 -0.027476862 -0.09514042 -0.076812044
000390 22 b0 9b bd d2 01 4f 3b 47 73 d6 3c e0 50 04 3c
       -0.07601954 0.0031586778 0.026178015 0.008075923
0003a0 7e 2c be 3d 4f 71 e4 bc e6 1f 53 3d 0c cd 4b 3d
       0.0928583 -0.027886061 0.051544093 0.049756095
0003b0 56 bd 88 3b 58 f8 9f 3d 17 f2 c1 3c 5f d8 8f 3b
       0.004172961 0.0781104 0.023675008 0.004389807
0003c0 98 97 b4 3d 04 52 35 3d f8 6e fe 3c 92 73 52 3d
       0.08817977 0.04426767 0.031058773 0.051379748
0003d0 04 44 b5 bd 1e 7c ab 3d aa 47 88 3d 7f 65 a6 3d
       -0.088508636 0.08373283 0.06654294 0.081248276
0003e0 d9 d8 b8 3d 8c 81 7a 3c 6a b4 9b 3d 02 ae c0 3d
       0.090257354 0.015289675 0.076027706 0.09408189
0003f0 a4 e8 c3 bc 42 f6 a9 bd ff 5b 18 bd 95 12 7b bc
       -0.023914643 -0.08298923 -0.03719711 -0.0153242545

sequential/conv2d_3/BiasAdd/ReadVariableOp:0 f4 [32]
000000 92 be 0c bc 23 e8 7e 3c 5d 7e 0b 3c f7 7d 6a bc
       -0.008590357 0.015558275 0.008514014 -0.014312259
000010 a1 a3 c1 3b b6 33 91 3c 4f 13 ed 3a 9a 85 9d 3c
       0.0059093987 0.017724853 0.001808742 0.019228745
000020 8f b9 85 38 e5 b0 37 bc 8e 7e 30 39 1a 81 8d 3a
       6.376497e-05 -0.011211609 0.00016831813 0.0010795922
000030 7c c5 67 3b 02 85 12 3b cf 14 76 3a a3 bc bb 39
       0.0035365513 0.002235711 0.0009387256 0.00035807965
000040 6b 24 9b 3b b4 98 ea 3b 4b 6b b6 bb 39 9a 19 3c
       0.004734566 0.007159317 -0.0055669895 0.009375148
000050 ef d9 05 bb 62 11 de bb d4 86 8b bb a9 60 c2 3b
       -0.0020424088 -0.0067769745 -0.004258016 0.005931933
000060 cf f7 9a bb 8b 7e c3 b9 a4 78 13 3a de 8f a9 b8
       -0.004729248 -0.0003728758 0.0005625582 -8.085345e-05
000070 1c 16 8b bc 51 60 05 bc c8 8e 9e 3b 60 53 fe 3b
       -0.016978316 -0.008140639 0.004838798 0.007761404

sequential/conv2d_2/Conv2D/ReadVariableOp:0 f4 [32, 16, 3, 3]
000000 4d 70 dd bd 39 0a 8d bd 4c 66 fc 3d 16 8e 4a bd
       -0.10812435 -0.068867154 0.12324199 -0.04945191
000010 d9 d4 68 bd 59 f3 db bd fb e8 91 bd 9c 09 45 bd
       -0.056843612 -0.10739774 -0.071245156 -0.048104867
000020 c2 fc 5a 3d 74 40 f9 3d 0f 08 51 3d 1a 07 4a 3c
       0.053463705 0.121704966 0.051033076 0.012330795
000030 96 bb 80 3d db cd 6b 3d c8 77 d8 3c 6e 79 ec bd
       0.06285779 0.057569366 0.026424304 -0.115465984
000040 73 c6 32 bd 50 cc 89 3c d6 c9 a2 3d c4 b9 9b bd
       -0.043646287 0.016821057 0.079486534 -0.07603791
000050 e7 0a 99 bc 28 02 65 bc 55 16 aa bd ff 70 55 3c
       -0.018681956 -0.013977565 -0.08305041 0.013027429
000060 e7 0d db bd 01 50 a7 3b 12 74 4d 3c 6f d5 31 3d
       -0.10696011 0.0051059728 0.01253988 0.043416437
000070 af 11 cb bd b4 e6 57 bb d0 23 f9 3c 68 fd df bc
       -0.09915482 -0.0032943906 0.030412585 -0.027342513
000080 2a 21 ae 3c 4b 00 68 3c e9 e5 34 3d f5 c8 8a 3d
       0.021256048 0.014160226 0.044164572 0.06776611
000090 f1 4f b7 bd b4 18 55 bd cb 43 89 3d 5a da 37 bd
       -0.089507945 -0.05202551 0.067023836 -0.04488597
0000a0 cf 3b f9 bb 07 e6 bd bc 61 6a 28 3d a7 10 ed bc
       -0.0076060067 -0.023180975 0.041117076 -0.028938605
0000b0 e4 f0 98 3d 3e 4c 1a 3d 8e b4 c2 bd 3f 18 e4 3d
       0.07467821 0.037670366 -0.09507094 0.11137437
0000c0 fb fc bf bd 43 29 b4 bc 8e 14 bc 3d a6 16 de 3a
       -0.09374424 -0.021992331 0.09183608 0.0016944006
0000d0 56 9e b4 3d fe 24 a7 bd 00 aa 44 3d f5 31 b6 3d
       0.08819263 -0.081613526 0.048013687 0.08896247
0000e0 d8 40 01 be bb 92 04 3d b2 1e 88 3d f7 b7 9e bd
       -0.12622392 0.032366496 0.0664648 -0.07749932
0000f0 51 72 a6 bd ca 17 65 3d 91 c0 15 bc aa a2 8f bb
       -0.08127273 0.05593089 -0.00914015 -0.0043834047
000100 60 a6 d6 bd e7 32 bd 3c 6c 5f d7 3d 7e e6 19 bd
       -0.10480952 0.023095561 0.10516247 -0.03757333
000110 ad 00 bd 3d 1b 5a c3 3c 51 f8 40 bd b6 19 14 bd
       0.092286445 0.023846677 -0.047111813 -0.036157332
000120 c2 da 28 3c fc 9d 7a bd a2 3b 36 3d 5a 4c d0 bd
       0.010306062 -0.061185822 0.044490464 -0.10170813
000130 c7 26 93 3d 27 d2 26 bd d8 b4 5f bd d4 5b e5 bd
       0.071851306 -0.04072776 -0.054615825 -0.111991554
000140 bf b2 4e bd 10 55 ce bd aa 93 eb 3d 8d 20 c4 3d
       -0.050463434 -0.10074818 0.11502774 0.09576521
000150 b2 ec 57 3d f3 9e 55 bd f7 49 16 3c da 92 96 bd
       0.052715965 -0.05215354 0.009172908 -0.073522285
000160 73 56 46 3d 8b 31 16 3d a1 2b 0c 3d 28 2b ea bd
       0.04842229 0.03666834 0.034221295 -0.11434013
000170 b2 dd e3 3c 8c 87 a3 bd 53 58 c4 bd 8c 69 cb 3d
       0.027815674 -0.07984838 -0.09587159 0.09932241
000180 cc 35 a1 bd d7 86 a1 bd 18 fa 09 3d 4a 56 ee 3c
       -0.07871589 -0.07887047 0.033685774 0.02909388
000190 d4 19 be 3d dc e5 85 3c e4 4c dc 3d 75 d1 6a 3c
       0.0928227 0.016344957 0.10756853 0.014332165
0001a0 e7 7d 5e 3d 4f 68 6c bd 39 c9 74 3d b1 1e 45 bd
       0.05431929 -0.057716664 0.059762213 -0.048124973
0001b0 70 4d 0f 3d 54 1e 20 3d 1e 5e 1a bc 29 8d fe 3c
       0.03498596 0.039091423 -0.009421853 0.03107317
0001c0 f2 ad 13 bd be 04 c8 3d d5 2b df bd 83 d9 96 3d
       -0.03605456 0.097665295 -0.10897032 0.07365706
0001d0 80 97 8a 3c 88 94 d5 bd 2b b7 2f 3d 63 1b 3e bd
       0.016917944 -0.10428721 0.042899292 -0.046412837
0001e0 5e 5e fc bd 72 c2 1e bd 99 16 9a 3d d2 1d 88 bd
       -0.123226866 -0.038759656 0.075238414 -0.06646313
0001f0 f6 c3 43 bc ab 46 4d bc fe 4f 95 3d 36 29 e6 3d
       -0.011948576 -0.012529056 0.07290648 0.11238329
000200 59 20 65 bb d3 1c e8 bc 35 9f 48 bd 19 51 46 bd
       -0.0034961908 -0.028334057 -0.048979957 -0.048417185
000210 4a 97 f1 3c 9d 7e f5 ba 05 69 d2 bd 5c 5f 55 3d
       0.029491086 -0.001872975 -0.10273937 0.052092895
000220 05 36 9c 3d e1 2e 3e bc 90 cc 9a bd e3 9f be bd
       0.07627491 -0.0116078565 -0.075585485 -0.0930784
000230 d8 b4 7c bd 2d 3b 87 bc 12 b7 11 3d 77 d2 8a bd
       -0.061695904 -0.01650771 0.03557498 -0.06778424
000240 7b db a2 bd d5 89 da bc 7e 16 f0 3d 54 08 89 bd
       -0.07952019 -0.026677052 0.1172304 -0.066910416
000250 ee ae cd bd 1c 40 24 bc 14 0b cc 3d 89 ec c3 3b
       -0.10043131 -0.0100250505 0.099630505 0.005979125
000260 87 51 93 3d 6f 19 dd 3d f2 9b 2d bd 69 a9 09 be
       0.071932845 0.10795867 -0.04238505 -0.13443531
000270 e7 b8 bc 3d 6f ea 17 3d 20 9c ca bd 42 01 60 bd
       0.09214955 0.037088808 -0.0989306 -0.0546887
000280 15 c0 a4 3d f6 20 94 bd dc ed c9 bd 2e af 04 bc
       0.08044449 -0.07232849 -0.09859821 -0.008098407
000290 ec 22 d4 bd 01 3d d3 bd 56 bd 08 3d 85 a4 c4 3d
       -0.10358223 -0.1031437 0.03338369 0.09601692
0002a0 a1 50 a0 3d dd 83 79 bd 7f 9d 81 bd e1 9f 93 3a
       0.07827879 -0.06091677 -0.06328868 0.0011262858
0002b0 ae 1a 52 bd 0c c1 9c bd 07 90 cb bd 00 ff fd bd
       -0.051294975 -0.07654008 -0.099395804 -0.12402153
0002c0 38 83 a1 3d 8a b2 ad bd e3 59 25 3d f7 1e 3c 3d
       0.07886356 -0.08481319 0.040368926 0.045927968
0002d0 ac 54 e2 bd 8c 23 88 3d ff 95 b4 3d e9 0c ea bd
       -0.11051306 0.06647405 0.08817672 -0.11428244
0002e0 ca 95 a8 bd 4d e0 4c 3d a8 4e 93 bc e2 1b 35 3d
       -0.08231695 0.050018597 -0.017981842 0.044216044
0002f0 dd df 8e bd c4 1a 89 bd 1c 9e 42 bb 74 d7 60 bd
       -0.06976292 -0.06694558 -0.0029696291 -0.054892972
000300 d7 2d bb 3b 75 5d b3 bb 17 10 37 bc 11 44 99 3d
       0.0057122516 -0.0054737874 -0.01117327 0.07483686
000310 fa 60 fc 3c 79 6a 97 bd 51 44 29 bd e2 87 95 3d
       0.03080796 -0.07393355 -0.041324917 0.07301308
000320 34 0a 39 3d 78 f5 20 bc f4 07 ca bd 1c 4a ed 3d
       0.045175746 -0.009824149 -0.09864798 0.11586401
000330 00 a6 dd bd 35 1a a6 bc 6b d7 bb 3d 4e 72 c8 bd
       -0.108226776 -0.020276168 0.09171947 -0.09787427
000340 e7 66 5a 3d 2c b2 00 bd 87 09 96 bd e3 e8 97 bd
       0.05332079 -0.031419918 -0.07326036 -0.074174665
000350 63 0c 41 bd bb 8e 84 3b a3 21 80 3d d5 d3 a6 3d
       -0.047130954 0.004045335 0.06256416 0.081458725
000360 de 14 40 bc 1c 1f 1f bc 8d 13 33 bd dd 4e 81 3d
       -0.011723725 -0.009712007 -0.043719817 0.0631387
000370 ed 64 c5 bd 44 b3 88 bd 32 bd 01 bc 42 00 1e 3c
       -0.09638391 -0.06674817 -0.007918643 0.009643616
000380 42 c8 a7 bc 36 11 70 bd 2f c9 0a 3d 87 11 be 3d
       -0.020481233 -0.058610164 0.03388327 0.09280687
000390 61 00 9a bc 4f 6e 4d 3d af 9e 2f bd 7a dc 02 bd
       -0.018799009 0.050154027 -0.04287594 -0.031948544
0003a0 30 90 44 bd 04 6a b1 3d ca a4 b0 bd 2d 2d da 3d
       -0.04798907 0.08662799 -0.08625181 0.10653148
0003b0 a6 de 55 3d a4 1a 7f 3d a9 3a c8 bc 11 e8 a2 bd
       0.052214287 0.062281266 -0.024442034 -0.079544194
0003c0 bd cf bf bc ab fb 3c bb a4 1a cb bb de 28 4d 3d
       -0.023414487 -0.002883653 -0.006198244 0.050087802
0003d0 88 9b 7d bd ea ab b7 bd b0 ea 50 3d 19 d3 7c bc
       -0.061915904 -0.08968337 0.051005065 -0.015431189
0003e0 67 ce 76 3d 57 b2 39 3d 03 c0 0c bc 52 8f d3 3d
       0.060255434 0.045336094 -0.008590701 0.103300706
0003f0 b6 3a 8f 3c ad 12 8d bd 38 46 51 3d 39 15 c6 bd
       0.01748405 -0.06888328 0.051092356 -0.09672017

sequential/conv2d_2/BiasAdd/ReadVariableOp:0 f4 [32]
000000 c7 a1 75 bc 0e 6c 0a 3b 5f 2f 2f 3b 65 2b e6 3a
       -0.014992184 0.0021121535 0.0026731116 0.001756054
000010 69 83 27 3c 3a 1f 05 3c 1a 64 11 3c a8 db b8 3b
       0.010224202 0.008125121 0.008873964 0.0056414194
000020 7a 59 07 bc b7 be fe 3b 0b d5 47 3a f0 f9 81 3b
       -0.008261079 0.0077742 0.00076229934 0.0039665624
000030 12 48 97 bb 72 9c b2 ba 7c 70 85 3b 0b d6 8e bb
       -0.0046167457 -0.0013626947 0.004072247 -0.004359012
000040 df 8a 7f 3a 55 9e 18 bb 26 72 28 bc f6 02 49 bc
       0.00097481714 -0.0023287733 -0.010281121 -0.012268772
000050 39 46 c4 ba 1b 6a d1 bb 8f 5d 6e 3a 09 f4 e0 3b
       -0.0014974541 -0.0063908226 0.0009092921 0.0068650288
000060 b7 e1 7e bc 6a b7 6f bb 4c 02 70 3b 8a 20 4f 3b
       -0.015556744 -0.003657783 0.0036622463 0.0031605088
000070 2c 08 ad bb 73 85 84 bc 60 5a 11 3c 0b e5 31 bb
       -0.005280515 -0.016176915 0.008871645 -0.0027144577

sequential/conv2d_1/Conv2D/ReadVariableOp:0 f4 [16, 16, 3, 3]
000000 90 80 fc bc 89 14 a1 3b 6c bd ba bd 5e d6 b6 3c
       -0.030823022 0.004915778 -0.091181606 0.022319015
000010 2c 9f 09 3e ff e3 96 bd d6 12 06 3e 2d b3 d8 3d
       0.13439626 -0.073677056 0.13093123 0.1058105
000020 10 28 f0 bd 89 67 25 3e 35 a3 c3 3d 6c ae 41 bd
       -0.11726391 0.16152777 0.09552614 -0.047285482
000030 ac 0c c6 bd ac 28 46 bc 9c 86 dd bd 63 9f 55 bd
       -0.09670386 -0.012094658 -0.1081669 -0.052153956
000040 30 a2 15 3d f2 54 5a 3c 53 28 c8 bd 22 6d e8 bd
       0.036531627 0.013325917 -0.09773316 -0.113489404
000050 4e 8a e8 bd d7 18 bd 3d 4a 63 cb 3d 12 38 9c bb
       -0.113545045 0.092332534 0.09931047 -0.0047674263
000060 a3 26 01 3e 16 1b d5 bd d3 e0 41 3d 25 08 14 be
       0.12612395 -0.10405557 0.04733355 -0.14456232
000070 21 3e 0f be d3 c5 bd bd 6a d5 c3 ba 64 d3 8c bd
       -0.13988544 -0.092662476 -0.0014940922 -0.06876257
000080 40 4f c4 3d 13 71 8d 3d 59 30 11 3d 6b 8d 93 3d
       0.09585428 0.06906333 0.0354465 0.07204708
000090 58 62 a5 3d 6f fc a3 3d 0e 36 d2 bd 0b 22 43 3d
       0.08075398 0.08007132 -0.10264216 0.047639888
0000a0 69 37 b9 3d be 86 fb bd 46 d4 99 bc c0 58 0b 3d
       0.09043772 -0.122815594 -0.018777978 0.034020185
0000b0 83 a2 bc bd 61 05 00 be 31 2a 09 be 9e ec 17 bd
       -0.09210684 -0.12502052 -0.13395001 -0.03709089
0000c0 c9 ab d3 bd 7a 6b c4 3d 2b 74 e2 3d ff 7f d0 bd
       -0.103355 0.09590812 0.110573135 -0.10180663
0000d0 17 0e 13 bd 56 60 d2 3d 5c 94 72 3d 17 01 a3 3d
       -0.03590211 0.10272281 0.059223518 0.07959192
0000e0 ce 19 04 be c2 a4 df 3d 1a 60 3f 3d 47 dd e6 3d
       -0.12900469 0.10920097 0.04672251 0.11272674
0000f0 e4 c3 d8 3d c0 a4 df bd 03 e2 8e 3d 7a cd 78 bd
       0.10584238 -0.109200954 0.06976702 -0.060742833
000100 68 d2 8a bd c7 68 b1 3d e6 a4 27 3d 07 2b ec bd
       -0.06778413 0.08662563 0.040928744 -0.11531644
000110 9a 65 68 bd 9f d0 dc 3d 92 4f 24 3c 01 96 77 bd
       -0.05673752 0.10781979 0.010028737 -0.06044579
000120 5f 70 26 bd d6 0c 02 3e f8 ab f8 bd 04 8a e4 3d
       -0.04063451 0.12700209 -0.121421754 0.11159137
000130 ff 60 ad bd a6 a0 87 3c 73 03 13 bd dd 29 f5 3d
       -0.08465766 0.016556095 -0.03589196 0.119708754
000140 7f 20 6d 3d 65 7f c2 bd dd 8f d4 3c 52 03 02 be
       0.05789232 -0.09496955 0.025947506 -0.12696579
000150 db 69 a9 3d fd c1 01 3e 66 56 bd bd dc 31 74 3d
       0.082721435 0.12671657 -0.09244995 0.059617862
000160 ea b4 d6 bd af 80 03 be 5a d0 e9 bc 74 1d 32 bc
       -0.10483725 -0.12842058 -0.028541733 -0.01087128
000170 03 d2 ec 3c 4f 40 cf 3d 0d 84 cc bd 80 fa bc bd
       0.028908735 0.10119688 -0.09986124 -0.092274666
000180 23 e9 54 3d 8e 67 82 3c ba 6b 26 bd 56 e0 36 3c
       0.05198015 0.01591852 -0.04063008 0.011161884
000190 ee 2a 8f 3d 02 27 03 be 2b a1 ce 3b 4f f0 0f bd
       0.0699061 -0.12807849 0.006305834 -0.035141286
0001a0 f7 c0 89 bc 76 54 88 3d 11 48 f3 bd 9a 73 38 3d
       -0.016815646 0.06656735 -0.1187898 0.04503212
0001b0 d2 b6 f3 3d d5 7d e8 3d 79 c4 c7 3d d0 24 02 3d
       0.119001046 0.113521256 0.09754271 0.03177339
0001c0 1a 9b dd bc 6c 64 19 3e f3 91 f2 bc 49 97 12 be
       -0.027051497 0.14979714 -0.02961061 -0.14315523
0001d0 fe 1f 02 3d a3 fd f0 3d 22 e6 ee 3d 75 b2 a8 3d
       0.03176879 0.11767127 0.11664988 0.08237163
0001e0 6f e5 67 3d 8d c8 ad bd 22 4d 4d 3d ad 72 ea 3d
       0.05661529 -0.08485518 0.050122388 0.11447654
0001f0 9f eb ac bc 1b c0 18 3d ec 62 5e bd 0c 16 dd 3d
       -0.021108447 0.03729258 -0.054293558 0.10795221
000200 b9 0d 1b bd 7b 6a a9 bc 21 5d 9a ba ab 76 0a 3e
       -0.037854884 -0.020680657 -0.0011777022 0.1352183
000210 51 a1 f5 3b 73 cb 19 3d 8a b4 2f bd d6 0f 93 3c
       0.007496037 0.03754754 -0.042896785 0.017951887
000220 75 fb 91 bd 26 09 73 bd 30 04 c0 bd 9d 6b 21 be
       -0.0712804 -0.059334897 -0.09375799 -0.15763707
000230 35 41 b8 3c bc 91 c4 3d 4d 58 c0 3d 20 ff 22 be
       0.02249203 0.09598109 0.09391842 -0.15917635
000240 e1 9f 41 3d a0 f6 15 3e 0e 33 00 3e 03 60 15 3e
       0.047271613 0.14644861 0.12519476 0.14587407
000250 d2 55 01 bd fc 74 8a bd 47 ba ed 3d 41 f3 18 3d
       -0.031575985 -0.06760594 0.11607795 0.03734136
000260 de 30 16 3e d6 d8 f7 3d 40 77 c4 3d 4b e7 f0 3a
       0.14667079 0.12101905 0.09593058 0.0018379478
000270 06 a9 94 bd f4 45 37 3d 9d e6 54 bc 5a 5e 96 bd
       -0.07258801 0.044744447 -0.012994436 -0.07342215
000280 8c e5 8e 3c 4e 14 9d 3c 55 89 09 be f7 5b ab bc
       0.01744344 0.019174721 -0.13431294 -0.020917876
000290 23 d9 cb 3d 69 f1 be 3d 5e cb 01 3e c4 98 ed bd
       0.09953525 0.09323389 0.12675235 -0.11601403
0002a0 39 aa 27 bd 2c 56 6f 3d 0a 43 63 3d 48 0d c2 bc
       -0.04093382 0.05843179 0.055483855 -0.023687974
0002b0 b2 a7 e0 bd 00 c8 32 bb d5 92 e4 3d 00 38 cf 3d
       -0.10969485 -0.0027279854 0.111608185 0.10118103
0002c0 ec df ad bd 68 c3 ba bc f3 f0 e8 39 38 57 9d 3d
       -0.08489975 -0.022798255 0.0004443001 0.07682651
0002d0 d7 2c 36 3b fe 38 01 3e 71 59 f3 3d 73 56 2c ba
       0.0027797723 0.12619397 0.11882294 -0.0006574161
0002e0 54 17 30 bd 8d 1b 5e bc a4 b3 02 bc 5d 5f cd 3d
       -0.042990997 -0.013556373 -0.0079774 0.10027955
0002f0 ea a2 68 3d 31 6c c4 bd ed ad cc 3d 45 74 83 bd
       0.056795992 -0.095909484 0.09994111 -0.06418661
000300 8b 88 09 be c9 94 84 3c e1 7e 25 be 10 19 37 bb
       -0.13430993 0.016184228 -0.16161682 -0.0027938522
000310 80 fd 65 bd 12 be db 3d 77 28 9e bb 80 4c ee 3d
       -0.05614996 0.107296124 -0.004826601 0.11635685
000320 22 ee 1b 3c d5 dd 7f bc 38 84 e2 bd 40 73 05 3e
       0.0095172245 -0.015616854 -0.11060375 0.13032246
000330 d0 9e b7 3d 48 89 48 3d 26 57 ba bd 40 bb 20 3d
       0.08965838 0.048959047 -0.090986535 0.039241076
000340 75 88 6e 3d f3 d5 af 3d 1f 17 5a bd f3 e1 00 bc
       0.058235604 0.085857294 -0.053244706 -0.0078663705
000350 43 21 00 be 33 46 7c bc 7e ab 1d bd 07 96 3e 3d
       -0.12512688 -0.015397596 -0.038493626 0.046529796
000360 37 85 86 3d d7 2e c0 bb 15 06 da 3a 86 0a 04 3d
       0.065683775 -0.0058649587 0.0016633893 0.0322366
000370 7a 23 af bd 90 ca a4 bd 90 41 c1 bd d5 c3 97 bd
       -0.085516885 -0.08046448 -0.09436333 -0.07410399
000380 c6 7f a7 bd 0f 7b cf bd 33 85 e8 bc 4d 97 f4 bd
       -0.08178668 -0.101308934 -0.028383827 -0.11942921
000390 9e 05 81 3d 40 b4 a5 3d be c9 09 3e 2a 9e 87 bd
       0.062998995 0.080910206 0.13455865 -0.06621964
0003a0 22 5d 3e 3d 90 5e 0c bd be b5 1f 3d c2 53 84 bd
       0.046475537 -0.03426987 0.038991682 -0.06461288
0003b0 7b 34 f9 3d 15 31 6f bd 5e e7 dc 3d 8e ab cf bd
       0.12168213 -0.058396418 0.10786317 -0.10140143
0003c0 7d 1b 62 3d 8e 84 23 be 19 32 47 bd 13 39 cc 3d
       0.055201996 -0.15968534 -0.04863176 0.099718235
0003d0 5a 9f b2 bd ca 16 ff 3c 51 45 87 3d c2 dc ee 3d
       -0.087218 0.031138796 0.06605018 0.116632
0003e0 a8 e4 0f be 05 f4 cb bd 57 78 88 bd e4 fa c9 bd
       -0.14052069 -0.099586524 -0.06663578 -0.09862307
0003f0 d7 7a ee 3d 49 7b 2d 3d b0 86 1e 3d d6 35 f1 3d
       0.116445236 0.042353902 0.038702667 0.117778465

sequential/conv2d_1/BiasAdd/ReadVariableOp:0 f4 [16]
000000 3e 7b b5 3b 27 08 b6 3c f5 61 25 bb c6 cf 3a 3b
       0.0055383733 0.022220684 -0.002523539 0.002850519
000010 ac 50 33 3c d8 12 e9 bc 37 6f 97 ba 29 94 88 bc
       0.010944527 -0.028451368 -0.001155353 -0.01667221
000020 8f 03 7e bc e7 2c 8d 3b 1a 68 70 3b 04 88 63 3c
       -0.015503778 0.0043083313 0.0036683143 0.013887409
000030 22 0c 6e ba 3c 7a 8a bc 0a ca bd bc 73 b9 7a bc
       -0.00090807874 -0.016903989 -0.023167629 -0.015303004

sequential/conv2d/Conv2D/ReadVariableOp:0 f4 [16, 3, 3, 3]
000000 e3 94 72 3d e7 6f 9d 3c cd 8c 0d be 25 0a f7 bd
       0.05922402 0.019218398 -0.13823242 -0.12062482
000010 22 c0 12 3d 6b 57 77 bd 47 3a 6e bd ce c7 60 bd
       0.035827763 -0.060386103 -0.058161046 -0.05487805
000020 04 ad c6 bd ed c5 0b be 5f 9a 3a be a8 d8 12 3c
       -0.09700969 -0.13649721 -0.1822295 0.008962788
000030 2d b4 d8 3c 86 03 76 bd 83 17 a3 3d 7d 11 72 3d
       0.026453102 -0.060061954 0.07963469 0.05909871
000040 07 30 28 3e 13 ea 3f 3e 91 3a 28 3e 11 66 3d bc
       0.16424571 0.18741636 0.16428591 -0.011559979
000050 82 67 0e 3e 44 e3 92 3d 7f a2 31 be ee 60 16 be
       0.13906673 0.07172254 -0.17347144 -0.14685413
000060 80 e5 e8 3d 4b 28 16 3e c9 0f ab 3c 17 f8 91 3c
       0.11371899 0.14663808 0.02088155 0.017818494
000070 45 65 f5 3c 7d 16 1d be 5f 3a 3c be c0 48 dc bd
       0.029955516 -0.1534061 -0.18381642 -0.107560635
000080 ca 07 2c 3e 12 55 aa 3d cd 1c a0 bd 06 36 2f be
       0.16799846 0.08317007 -0.07817993 -0.17110452
000090 90 8a 07 3e dc 0a 21 3c 11 61 06 be 9b 2f 22 3e
       0.13236451 0.009829249 -0.13122965 0.15838473
0000a0 ee 76 cd 3d 14 f3 50 3b 27 7d dc 3d 4a 12 2f be
       0.1003245 0.0031883167 0.107660584 -0.1709682
0000b0 10 24 19 3e 26 15 91 3c 66 e0 06 3e 2c 78 39 3d
       0.14955163 0.01771028 0.13171539 0.04528062
0000c0 12 49 6e bb 52 2e 6a 3d 39 53 3f 3e 5d b8 2c be
       -0.0036359471 0.05717308 0.1868409 -0.16867204
0000d0 d3 ba 0d be 5a 7c 88 bd 1c 9b b4 3b 16 35 3a 3e
       -0.13840799 -0.06664343 0.0055116545 0.18184313
0000e0 c1 58 ed bd e8 4e b3 bc 01 ee e6 bd e4 a2 77 bd
       -0.11589194 -0.021888211 -0.112758644 -0.06045808
0000f0 65 e8 fd bd b6 05 e6 3b 16 44 a1 bd 25 0d c9 bd
       -0.12397841 0.0070197238 -0.078743145 -0.0981696
000100 b2 73 f1 3d 22 38 13 3d 7c b5 07 be 0d 98 0a be
       0.11789645 0.035942204 -0.13252825 -0.13534565
000110 7f 31 cb bd ad 88 2b 3e 94 f0 08 bc 7a 65 05 3e
       -0.0992155 0.16751356 -0.00835814 0.13026991
000120 ce 30 67 3d 6e 58 22 3e f2 ac 26 bc 78 c2 93 bd
       0.05644303 0.15854046 -0.010173069 -0.07214826
000130 9e a9 8a 3d c0 90 0c 3d 68 98 00 be 10 81 85 3d
       0.06770633 0.03431773 -0.12558138 0.06518757
000140 3d e7 3d 3e 84 5a d3 bd 93 b1 41 3e 99 f0 91 3d
       0.18545242 -0.10319999 0.18915395 0.071259685
000150 5a 49 5a bd 66 35 ab bd 49 ba 1f 3e 1d 07 7b bd
       -0.05329261 -0.08359794 0.15598406 -0.06128608
000160 c2 32 37 3e 34 1f 96 3d 16 fc 3b 3e 9d 6a 36 bd
       0.17890456 0.0733017 0.18357882 -0.044535268
000170 00 73 9a bd 32 6e 1d 3e 03 b1 8b 3d e3 c3 92 bd
       -0.07541466 0.15374067 0.06820872 -0.07166269
000180 34 bc 35 be 0f bf 3c 3d b1 e8 c0 3d aa 81 90 bd
       -0.17747575 0.046080645 0.09419382 -0.070559815
000190 11 d3 f2 bd 71 8d 34 3b 4a 2e 32 be eb ee a1 bd
       -0.11856664 0.0027550126 -0.1740047 -0.07906898
0001a0 08 f1 31 3e 5a df 94 3d 48 90 7e 3d 3f 41 6f 3d
       0.17377102 0.072691634 0.062149316 0.058411833
0001b0 f3 3a 10 bd 83 1e b4 3b ea 35 d9 3d f5 fb 87 3d
       -0.03521247 0.0054968013 0.106059864 0.06639854
0001c0 da 8e f9 bc 4f bb 72 3c 14 e1 33 be 59 27 c4 bd
       -0.030463625 0.014815166 -0.17566329 -0.095778175
0001d0 50 e6 9b bd b3 c1 35 3d 59 67 ce 3d c4 90 77 bd
       -0.07612288 0.04437418 0.10078306 -0.060440794
0001e0 26 10 43 be 7b 11 7c bd c1 85 1f bc 8a 46 0b be
       -0.19049129 -0.06154011 -0.009736479 -0.13601127
0001f0 4d 04 9b bd 58 a3 b5 bd b9 cc da bd 64 3b f5 bd
       -0.0756918 -0.08869046 -0.10683579 -0.119742185
000200 64 b5 3a 3e 31 47 e0 bd 86 7b 17 be 30 7a b1 3d
       0.18233258 -0.10951079 -0.14793214 0.086658835
000210 37 34 fb bd a1 7b 9e bd 46 bd 38 3e d6 0a 95 3d
       -0.122658186 -0.07738424 0.18040952 0.072774574
000220 f3 6b 21 be 0f b6 1d 3e a9 5c 38 be 3f 89 aa bd
       -0.15763836 0.15401481 -0.18004097 -0.08326959
000230 0c 55 3f bd 76 95 a4 bd a3 f2 2b 3e d0 d8 e3 3d
       -0.046711966 -0.0803632 0.16791777 0.11125338
000240 cf ed e6 3c 56 8e 82 bd d5 22 e7 bb 97 13 1a 3e
       0.028189568 -0.06374805 -0.007053713 0.15046535
000250 d2 01 0b be 6b 69 01 be ad fd b4 bd 2d 61 b0 bc
       -0.13574913 -0.1263787 -0.08837447 -0.021530712
000260 03 e7 38 bd 59 56 9d bd a9 bb dd 3b 76 33 da bd
       -0.045142185 -0.07682485 0.0067667556 -0.10654347
000270 65 36 bf bd c8 cb aa 3d ba 41 2e 3e 4f a7 74 bd
       -0.09336547 0.083396494 0.1701726 -0.05972987
000280 ad cc 32 be b3 3a 3d 3e 12 d5 ac bd 9c c1 1b bc
       -0.1746089 0.18479423 -0.084390774 -0.009506609
000290 50 ca 3b be c0 79 06 bd 10 d7 57 bc 15 8f 3c 3e
       -0.18338895 -0.032830954 -0.0131738335 0.18413956
0002a0 48 91 83 3d 56 a0 cb 3d 99 29 68 bd 43 e6 5c 3d
       0.064241946 0.09942691 -0.056680296 0.053930532
0002b0 5a d3 7a bd 95 c0 2c 3d 55 04 88 bc 7e 90 1b 3d
       -0.061236717 0.042175848 -0.016603628 0.037979595
0002c0 42 40 82 3d f4 7f 31 3e 68 b2 00 be 70 40 66 3d
       0.063599125 0.17333966 -0.12568057 0.056213796
0002d0 b1 1a 06 3e 19 2e a4 bd 31 93 40 3e 53 0b 27 bd
       0.1309612 -0.08016605 0.18806149 -0.040782284
0002e0 85 3e bd bd 61 6d d7 3d 78 dc 08 be db 33 0e bd
       -0.0924044 0.10518909 -0.13365352 -0.034717422
0002f0 0f b3 83 bb e3 5b 27 3e 99 48 22 3e fe d9 8c 3d
       -0.004019148 0.16343646 0.15848006 0.06877516
000300 85 93 2b bd 2f bf 47 3e c3 d3 2b 3e 73 2b 98 bd
       -0.041888732 0.19506525 0.1678 -0.07430162
000310 1d d5 f0 bd b3 b8 18 3d 4e 62 04 be 75 a0 13 3e
       -0.11759398 0.037285518 -0.12928125 0.14416678
000320 d1 df d0 3d 40 f0 25 be 55 54 2e be 9c 36 ba bd
       0.101989396 -0.1620493 -0.17024358 -0.09092447
000330 2c c8 9f 3d 60 f7 a0 3d 1d 3c 09 3e e7 fd 2f be
       0.07801852 0.07859683 0.13401838 -0.171867
000340 f6 83 06 3d ee c4 31 3d 9d d2 0b be 42 42 00 3e
       0.03284069 0.043400697 -0.13654561 0.12525275
000350 32 c2 0d 3e 22 f1 94 bc e9 f1 12 3d 5b 43 31 3c
       0.13843611 -0.018181387 0.035875235 0.010819281
000360 32 df 5a bd 74 e8 49 3e 2f 83 0b be 0f 03 e2 bc
       -0.053435512 0.1971758 -0.13624261 -0.02758935
000370 23 e9 e9 bd 37 b9 5a 3c 43 bf 11 be 19 8f 44 3d
       -0.114214204 0.013349823 -0.14233117 0.04798803
000380 26 44 a1 3b cb aa 0a 3d b3 ec 1b 3e 9a c3 9e bc
       0.004921454 0.033854287 0.15227012 -0.01938038
000390 ac d3 1c be b7 2b e1 bd e8 62 28 3e 02 2d ff 3c
       -0.15315121 -0.10994666 0.1644398 0.031149391
0003a0 c1 36 2b 3e 64 7e 60 bc 36 b1 a7 3d 26 53 f0 3d
       0.16720106 -0.013702009 0.08188097 0.11734609
0003b0 0e 2a 77 bc 11 82 63 bd a2 8c 82 3c 49 59 6b 3d
       -0.01508571 -0.055543963 0.0159362 0.057458196
0003c0 4a 5c 16 3e 5f 90 2c 3e 30 0d b1 3d c8 92 30 be
       0.14683643 0.16851948 0.086450934 -0.17243493
0003d0 df 3b 0a bd d5 36 15 3d aa 1e ad bd a6 7b a4 3d
       -0.033748504 0.036429245 -0.08453114 0.080313966
0003e0 d4 3f 1c be a1 87 37 bd 1b 56 4b 3e fc 59 aa 3d
       -0.15258723 -0.04480708 0.19857065 0.083179444
0003f0 ca 28 cf 3d a8 11 0b be 72 ba 9e 3d 2b 46 0e 3e
       0.10115202 -0.13580954 0.07750405 0.13893954

sequential/conv2d/BiasAdd/ReadVariableOp:0 f4 [16]
000000 30 ca 4a bc 4d ea 3c 3b 3c eb 7f 3b e3 7f 61 3c
       -0.012377307 0.0028826178 0.0039050123 0.013763401
000010 f0 a2 de ba 85 4f 3f 3b f8 b0 00 3c 7c d7 47 bd
       -0.0016985815 0.0029191684 0.007854693 -0.048789486
000020 0d 9d 16 bc 87 94 84 ba ee 55 bc 3c 5c 07 13 bc
       -0.009192717 -0.0010115065 0.022990193 -0.008973923
000030 5e 9b 2d bc 62 57 65 bb 83 49 d4 bb 4d 17 a8 3c
       -0.010596124 -0.0034994711 -0.00647849 0.020518923

sequential/batch_normalization_4/batchnorm/sub:0 f4 [64]
000000 ec 22 da bf 1b d4 2b be 8a de b7 bc f4 85 90 bf
       -1.7041907 -0.1678013 -0.022444982 -1.1290879
000010 55 7e ae bf 79 41 ef be 35 12 86 bf 8e 1a af bf
       -1.3632303 -0.4672964 -1.0474306 -1.3679979
000020 0b 0b 88 bf 31 d7 96 bf 20 70 8d bf 4e 17 5a bd
       -1.062837 -1.1784421 -1.1049843 -0.05324488
000030 db 72 ce bf a4 2d 12 bf 2b 44 04 bd 93 3b d5 be
       -1.6128801 -0.5710089 -0.032291573 -0.41647014
000040 f1 45 fb bc 0e 2a 9d bf b8 67 8d bf ee b7 bb bb
       -0.030673 -1.2278459 -1.1047277 -0.0057287132
000050 4e 1b 8a bc 03 07 e3 3b e9 92 87 3b fb b9 79 bd
       -0.016858723 0.006928326 0.004137386 -0.06096838
000060 16 a2 27 bc d1 de 36 be 18 32 83 bf 37 37 b0 bf
       -0.010231515 -0.17858435 -1.0249662 -1.376685
000070 02 b1 b1 bf c9 a6 b0 bf a9 44 0a bd b6 9f d2 bb
       -1.3882143 -1.3800899 -0.033756886 -0.0064277304
000080 76 42 95 bf df ec b6 bf 14 f4 b9 bb c5 82 9b bf
       -1.1660907 -1.4291037 -0.0056748483 -1.2149283
000090 0b ce c3 bf 40 e6 05 bd 68 06 84 bf 38 8c ab bf
       -1.5297254 -0.032690287 -1.0314455 -1.3402166
0000a0 5b 33 b1 bf 6b ff c2 bf 3d cd 8e be 75 b0 8a bd
       -1.3843797 -1.5234197 -0.2789096 -0.06771938
0000b0 19 c6 d4 bf 32 9e c9 bf 91 d9 15 be c1 4d 5f be
       -1.6622955 -1.5751402 -0.14633776 -0.21807005
0000c0 0f 4e 00 bc 52 52 03 be 94 3a 12 bd c4 23 8a bf
       -0.007831111 -0.12824371 -0.035700396 -1.0792165
0000d0 59 f2 ca bf cc c6 67 bf d2 58 9d bb 31 21 92 bf
       -1.5855209 -0.90537715 -0.004801848 -1.1416379
0000e0 dd 2c b5 bf b6 02 7b bf fd 4a cd bf e7 5a a7 bf
       -1.4154316 -0.9805101 -1.603851 -1.3074616
0000f0 b4 b6 94 bf 4e 70 9a bf 7c 21 1f bd 22 d3 a3 bf
       -1.1618257 -1.2065523 -0.038850293 -1.2798808

sequential/batch_normalization_4/batchnorm/mul:0 f4 [64]
000000 79 26 74 3e 01 41 9e 40 98 8e c8 41 ad 6e 7d 3e
       0.23842801 4.945435 25.069626 0.2474925
000010 51 52 db 3e 2f 2e 5e 3f 30 1c 04 3f 75 21 b3 3e
       0.4283624 0.8678922 0.5160551 0.34986463
000020 91 a4 c2 3e 20 3a 44 3e 87 c4 eb 3e 2e a4 55 41
       0.3801618 0.19162798 0.46048376 13.352583
000030 91 21 ac 3e dc 54 1d 3f 9f 1d df 41 6c 33 ae 3f
       0.3361936 0.6145761 27.889463 1.3609443
000040 da e6 b3 41 d2 b5 a1 3e 2b a9 c6 3e e5 a4 f7 41
       22.48772 0.3158403 0.3880094 30.955515
000050 2e 72 f1 41 f8 b3 f9 41 f5 a4 f5 41 04 d3 13 41
       30.180752 31.212875 30.705545 9.2390175
000060 7d 10 ee 41 b9 d0 72 40 31 3f f0 3e d5 e5 a6 3e
       29.75805 3.7939894 0.4692321 0.32597223
000070 4c 08 86 3e 93 71 ba 3e 56 a3 cd 41 99 48 f7 41
       0.26178205 0.36414775 25.704754 30.910448
000080 9e c8 b1 3e d3 9a ac 3e 63 48 f3 41 0f aa a7 3e
       0.3472337 0.33711872 30.410345 0.32746932
000090 50 a5 6f 3e 35 12 bf 41 84 0b bd 3e f6 d4 c3 3e
       0.23402905 23.88389 0.36922848 0.38248414
0000a0 58 c1 8a 3e 64 1c a8 3e 6d af 02 40 41 f3 14 41
       0.27100635 0.3283416 2.0419571 9.309388
0000b0 8e 14 9a 3e 72 97 ae 3e e0 db a4 40 2a e5 4b 40
       0.30093807 0.3409992 5.15184 3.185862
0000c0 11 e6 f9 41 2c 0b ed 40 e7 a7 93 41 6d 02 ba 3e
       31.237337 7.4076138 18.456984 0.36329976
0000d0 5c 1b a8 3e 28 19 c8 3e 0d 2b f8 41 b1 1c c4 3e
       0.32833374 0.39081693 31.02102 0.3830314
0000e0 09 54 9c 3e 97 c1 db 3e 2f 93 9b 3e 0f 0a b6 3e
       0.30532864 0.42921135 0.3038573 0.3555455
0000f0 48 98 d7 3e eb de 98 3e fb 8a 93 41 c3 de d1 3e
       0.4210837 0.29857573 18.442862 0.40990266

sequential/batch_normalization_3/ReadVariableOp_1:0 f4 [32]
000000 d0 23 bf ba 91 e0 37 3c c5 f2 15 bb 51 aa a7 3a
       -0.0014582817 0.011222974 -0.0022880298 0.0012791847
000010 3f de 23 bb 02 97 0d 3c e9 39 71 b9 51 9d 82 bb
       -0.0025004295 0.00864196 -0.00023005124 -0.0039860387
000020 c0 e0 ee 3b 67 19 d7 3a e1 e5 2c bc 59 79 d4 3a
       0.007289976 0.0016410769 -0.010552854 0.0016210481
000030 2e 10 86 ba ab fe bd 3b 3c 1d 36 3b 07 88 c6 3a
       -0.0010228211 0.005798181 0.002778842 0.001514674
000040 73 be f2 39 61 43 56 3c b0 bc 62 3c 70 92 d0 3b
       0.00046299733 0.013077588 0.013838932 0.006365113
000050 72 6e 0c 3c 62 ee 5f b9 55 8c 46 bc 2a 1c 98 3b
       0.008571254 -0.00021355742 -0.012118419 0.0046420293
000060 27 21 11 3c d7 9d 2d bc d7 66 ce bb 54 af 0c bc
       0.008858002 -0.010596714 -0.0062988806 -0.008586723
000070 b5 6b af 3b 1d 1d 39 bc 91 27 5c 3c d1 f9 3e bc
       0.005353416 -0.011298445 0.013437168 -0.011656241

sequential/batch_normalization_3/ReadVariableOp:0 f4 [32]
000000 56 40 7f 3f 12 72 7f 3f 63 0f 7e 3f 18 cd 80 3f
       0.99707544 0.9978343 0.9924223 1.006259
000010 05 6e 7c 3f c3 a7 7d 3f 1f 26 80 3f 76 13 7b 3f
       0.98605376 0.9908411 1.0011634 0.9807657
000020 01 13 82 3f 55 4e 80 3f 67 bf 7f 3f a5 4c 82 3f
       1.016205 1.0023905 0.9990143 1.017964
000030 92 55 7e 3f 5c d3 7f 3f 02 a1 80 3f 73 e5 80 3f
       0.9934932 0.99931884 1.0049136 1.0070022
000040 7c b7 7d 3f 2f 04 7f 3f ad 34 81 3f 2a ad 80 3f
       0.991081 0.9961576 1.00942 1.0052845
000050 32 ca 7e 3f 20 50 80 3f a1 f1 7e 3f 59 ab 7f 3f
       0.99527276 1.0024452 0.99587446 0.9987083
000060 43 f2 82 3f 7f f6 7c 3f 76 7d 7c 3f 11 0b 81 3f
       1.0230182 0.98813623 0.9862894 1.0081502
000070 45 1e 81 3f c7 6d 7c 3f ad 5a 80 3f b1 6c 7d 3f
       1.0087363 0.98605007 1.0027672 0.98993975

sequential/batch_normalization_3/FusedBatchNormV3/ReadVariableOp_1:0 f4 [32]
000000 60 07 ee 3e 2a 3c 99 3e 0c 68 c9 3e 1f 9c bd 3e
       0.46490002 0.29928714 0.39337194 0.37033173
000010 54 ad f0 3e db fd e2 3e 8a 41 a3 3e de 9b 91 3e
       0.4700724 0.443343 0.3188594 0.2843923
000020 3b 95 af 3e 07 2a bc 3e 23 a2 04 3f 37 2f ac 3e
       0.3429354 0.36750814 0.518099 0.33629772
000030 3e 6e c1 3e f4 ea ed 3e b9 5e ce 3e 23 a1 85 3e
       0.3777942 0.46468318 0.40306643 0.260995
000040 da 47 a8 3e 2f f1 fe 3e ae 5c a8 3e dd 20 b1 3e
       0.32867318 0.49793383 0.3288321 0.34595385
000050 5c 48 bb 3e a4 46 e1 3e 1e 92 c9 3e 69 03 01 3f
       0.36578643 0.43999207 0.3936929 0.5039583
000060 13 b6 ba 3e 8a fc b6 3e cc ea 6e 3e a7 6c 9b 3e
       0.36467037 0.35739547 0.23331755 0.30356333
000070 00 25 bf 3e 3d 13 b9 3e 81 59 d5 3e 8a d4 dc 3e
       0.37332916 0.3614749 0.4166985 0.43130904
